data_test/model_0401.onnx (onnx, 6395 bytes, 4 tensors)

layer1.weight f4 [32, 4]
0	0xbb755400	-0.00374341
1	0x3e89545e	0.2682218
2	0xbed2b316	-0.41152257
3	0xbebc6680	-0.3679695
4	0xbe4532f4	-0.19257718
5	0x3e094bec	0.13407868
6	0xbc224f40	-0.00990659
7	0x3ecaface	0.39644474
8	0xbd35bf70	-0.044372022
9	0x3e077b4c	0.13230628
10	0xbe1abbac	-0.15110654
11	0xbdc94870	-0.098282695
12	0xbef491b8	-0.47767425
13	0xbea98b52	-0.33114105
14	0xbe530ee8	-0.20611155
15	0x3c97bb00	0.018521786
16	0x3e4a6960	0.1976676
17	0x3e999b18	0.3000114
18	0xbead8d8c	-0.33897054
19	0xbe5ef4fc	-0.21773142
20	0x3e39f798	0.18160856
21	0x3ed4944e	0.41519397
22	0xbdd2bd48	-0.10290009
23	0x3ebf915c	0.37415588
24	0xbe699d8c	-0.22814006
25	0xc040d7a9	-3.0131629
26	0x3ee3080d	0.4434208
27	0x4033fdf5	2.8123753
28	0xbea12966	-0.31476897
29	0xbe019ee0	-0.12658262
30	0xbe4793dc	-0.19489998
31	0x3edd2f28	0.4320004
32	0xbea5ef1a	-0.32408983
33	0xbe6bb0c0	-0.23016644
34	0xbeb2da1a	-0.34932023
35	0xbeefc276	-0.4682805
36	0x3ec1ae8b	0.37828478
37	0xbfccc602	-1.5997927
38	0x3e6f4799	0.23367156
39	0x4016acf8	2.3543072
40	0x3f70fd9b	0.9413697
41	0xc053019e	-3.2969737
42	0x3cf2e8fb	0.02965211
43	0x402d6009	2.7089865
44	0xbf90b894	-1.1306329
45	0x4007f3bf	2.124252
46	0x3e9dfde5	0.3085777
47	0xc00a23ce	-2.1584353
48	0x3f01076b	0.50401944
49	0xc01e5043	-2.4736488
50	0x3e965e07	0.29368612
51	0x40440f27	3.0634248
52	0xbe8d846c	-0.27640092
53	0x402b17fb	2.6733387
54	0x3ea2da6f	0.31807277
55	0xc03a2d51	-2.909016
56	0x3dbed0f8	0.093172014
57	0xbec67a6c	-0.38765275
58	0xbeb16e18	-0.34654307
59	0xbe843ed2	-0.25829178
60	0x3e67aa8c	0.22623652
61	0x3e4de7f8	0.2010802
62	0xbe97a46a	-0.29617625
63	0x3e1aadc8	0.15105355
64	0x3fb53392	1.4156363
65	0xc04ef021	-3.2334063
66	0x3c8f44c1	0.01748884
67	0x405d79ee	3.460567
68	0x3e9ed100	0.3101883
69	0x3ef5cf48	0.48009706
70	0xbec54796	-0.38531178
71	0xbe3ba1ec	-0.18323487
72	0x3e0aa518	0.13539541
73	0x4030f896	2.7651725
74	0x3ed6066c	0.41801775
75	0xc008d4f9	-2.1379988
76	0x3f92e889	1.1477214
77	0xc0741d90	-3.8143044
78	0x3cc34559	0.023836778
79	0x4058e5af	3.3890188
80	0x3e661c73	0.2247179
81	0xbfcc2211	-1.5947896
82	0x3ec7d354	0.39028418
83	0x3fcb9aab	1.5906576
84	0x3dbfaa08	0.09358603
85	0xbdac80c8	-0.084230006
86	0xbda882b8	-0.082280576
87	0xbe6a5f1c	-0.22887844
88	0x3f853d6d	1.0409371
89	0xc0395f7a	-2.8964524
90	0x3e36e358	0.17860162
91	0x403ab061	2.9170153
92	0x3eb7435c	0.3579358
93	0x3e3f7148	0.18695557
94	0xbefd5f4a	-0.49486762
95	0xbea61100	-0.32434845
96	0x3e7fa638	0.24965751
97	0x3dd65318	0.104650676
98	0xbec7b396	-0.390042
99	0xbe9368e8	-0.28790975
100	0x3ef0d4f2	0.47037464
101	0x3eac7f54	0.33690894
102	0xbe5f3eb0	-0.21801257
103	0xbe00dcd4	-0.12584239
104	0xbef3dd78	-0.47629905
105	0xbc133e80	-0.008987069
106	0xbec0c878	-0.37652946
107	0xbec577a2	-0.38567835
108	0xbce1b020	-0.027549803
109	0x3d99bfa0	0.07507253
110	0xbe51adf4	-0.20476514
111	0x3e97e798	0.2966888
112	0x3e81ab06	0.25325793
113	0xbfc3e3b6	-1.5303867
114	0x3eb67494	0.35635817
115	0x3fcf7dcf	1.6210269
116	0xbeb2589a	-0.34833223
117	0x40737dfd	3.8045647
118	0x3dd49cb6	0.10381453
119	0xc0813acf	-4.038429
120	0x3e48ec5c	0.19621414
121	0x3cf559e0	0.029950082
122	0xbe79d1cc	-0.24396437
123	0x3e7245d4	0.2365945
124	0xbef59156	-0.47962445
125	0xbe97bba0	-0.29635334
126	0xbe002b3c	-0.12516493
127	0xbe7966ec	-0.24355668

layer1.bias f4 [32]
0	0xbe331d5c	-0.17491668
1	0xbed1d2ba	-0.40981084
2	0xbdd9d200	-0.106357574
3	0x3ddae2f8	0.10687822
4	0xbea6c676	-0.3257329
5	0xbcd23440	-0.02565968
6	0xbf8bc5ce	-1.091974
7	0xbd5288f0	-0.051400125
8	0x3c63ac80	0.013896108
9	0x3c554cc0	0.013018787
10	0xbc81916b	-0.015816411
11	0x3e9ca0b3	0.30591354
12	0x3eae00c9	0.33984974
13	0x3f46af6a	0.7761141
14	0x3ef30cc4	0.47470677
15	0xbd141d60	-0.036160827
16	0xbeba05d5	-0.36332574
17	0xbe72ba40	-0.23703861
18	0x3f89f2b0	1.0777187
19	0xbdcf3ec3	-0.10119393
20	0xbe366f9e	-0.17816016
21	0xbec42d02	-0.38315588
22	0xbef89c0e	-0.4855656
23	0xbed810ec	-0.4220041
24	0xbdcfb470	-0.101418376
25	0x3e8c6456	0.274203
26	0x3e8a6774	0.27032053
27	0xbef6e502	-0.48221594
28	0x3e8415ea	0.2579797
29	0x3f46285c	0.77405334
30	0xbdd87bf0	-0.10570514
31	0xbe4f9a1c	-0.20273632

layer2.weight f4 [3, 32]
0	0xbd0b77e4	-0.034049883
1	0xbd0e2ad4	-0.034708813
2	0xbe22700c	-0.15863055
3	0xbe1c4c88	-0.1526357
4	0xbce29b40	-0.02766192
5	0x3b15d280	0.0022861063
6	0xbdcb7156	-0.099337265
7	0x3d886132	0.066591635
8	0xbe22ed8f	-0.15910934
9	0xbcef1e75	-0.029189328
10	0x3e28983a	0.1646432
11	0xbdcf99f8	-0.10136789
12	0x3e12e436	0.14344868
13	0x3d33fbbc	0.043941244
14	0xbe235ce6	-0.15953407
15	0x3de50f96	0.111846134
16	0x3dbd2862	0.09236218
17	0xbda19dd5	-0.07891432
18	0x3e001c26	0.12510738
19	0xbde217ff	-0.11039733
20	0xba3e4c6e	-0.0007259314
21	0xbd179960	-0.037011504
22	0x3df61df2	0.1201743
23	0x3d4a1f4c	0.049346253
24	0x3dadf626	0.08494215
25	0x3d7fb6e4	0.062430277
26	0xbd2e1f4c	-0.042510316
27	0xbd184704	-0.0371771
28	0xbe284638	-0.16433036
29	0x3d91ed35	0.07125322
30	0x3e0fb9b3	0.14035682
31	0x3df7b742	0.120955005
32	0xbdff5fcc	-0.12469444
33	0x3c012cd0	0.007884219
34	0xbdff36a2	-0.12461592
35	0xbdc74beb	-0.09731277
36	0xbdd2f640	-0.10300875
37	0x3d777328	0.060412556
38	0xbdba58b9	-0.09098954
39	0xbb7cc200	-0.0038567781
40	0x3bf3af40	0.007436663
41	0x3e061bc9	0.13096537
42	0xbc6cccc1	-0.014453114
43	0xbe11d8da	-0.14242879
44	0xbda13038	-0.07870525
45	0x3dff79cb	0.12474402
46	0xbd8223e6	-0.06354503
47	0x3e18b011	0.14910914
48	0x3efc65e6	0.49296492
49	0x3cb75fc0	0.022384524
50	0x3c2ce359	0.010552251
51	0x3e307945	0.1723376
52	0x3d006632	0.03134746
53	0xbd2556d8	-0.040366024
54	0x3d69f5cb	0.057119172
55	0x3cb8c640	0.02255547
56	0xbe0d9820	-0.13827562
57	0xbdbdc17f	-0.09265422
58	0x3e122bfb	0.1427459
59	0xbe12e7d8	-0.14346254
60	0xba3fcc7c	-0.00073165423
61	0x3e0e6cf5	0.13908751
62	0x3d82c822	0.063858286
63	0x3ba401c0	0.0050050914
64	0xbe1cdf87	-0.15319644
65	0x3db35892	0.08757128
66	0xbe00efc4	-0.12591463
67	0xbd4d8a28	-0.050180584
68	0xbd72f094	-0.059311464
69	0xbcd67418	-0.026178405
70	0x3e165b82	0.14683345
71	0x3e154e5d	0.14580674
72	0x3cb4c930	0.02206859
73	0x3e957a76	0.29194993
74	0x3f76853e	0.9629706
75	0xbe84670c	-0.2585987
76	0x3e863866	0.26214904
77	0xbe8f7b3b	-0.28023705
78	0xbd9970eb	-0.074922405
79	0x3d54f7b4	0.05199404
80	0x3fc94807	1.5725106
81	0x3e07ce47	0.13262282
82	0xbe26e8c2	-0.16299728
83	0x3f9f0479	1.242324
84	0x3e29c990	0.16580796
85	0xbe2f0ff8	-0.17095935
86	0x3f016e77	0.5055918
87	0xbe15b05f	-0.14618061
88	0x3b1fac80	0.0024364293
89	0xbcf635e8	-0.030055001
90	0xbdbead0d	-0.093103506
91	0x3cbf6770	0.023364753
92	0x3e6934a1	0.22773983
93	0xbf5e56be	-0.8685111
94	0xbdd6f0b2	-0.10495128
95	0xbd85e55d	-0.06537888

layer2.bias f4 [3]
0	0x3e198b84	0.14994627
1	0x3f408400	0.75201416
2	0x3dc92206	0.098209426
